results/scratch/12owob2t/sae_20/model.pth (torch, 263199 bytes, 2 tensors)

encoder.0.weight f4 [256, 128]
000000 95 b3 90 bd b6 2b 86 bb 73 32 7c bd 46 d5 7a bd
       -0.070655026 -0.004094566 -0.06157155 -0.06123855
000010 67 bb 57 3d 42 4c 39 3a a1 ac a4 bd 79 e5 f5 39
       0.052668955 0.0007068553 -0.08040739 0.00046901012
000020 3c 90 21 3d 66 9f 3d 3d e5 81 86 3d 30 32 21 bd
       0.039444193 0.046294592 0.06567744 -0.039354503
000030 a0 b0 b1 bd c2 1c 8a 3d cd 9e 8d 3d 84 69 aa bd
       -0.08676267 0.06743766 0.069150545 -0.08320907
000040 20 50 93 3d 18 88 c6 3b c6 ab a6 bd 91 53 e0 bc
       0.07193017 0.006058704 -0.08138232 -0.027383598
000050 f7 11 95 bd 22 c5 75 bd 9a d4 cd bc c3 0d 53 3c
       -0.07278817 -0.060002454 -0.02512579 0.012881699
000060 24 9a 2e 3d f1 98 7b 39 e3 be 48 3c bc 8f 5a 3d
       0.04262747 0.000239942 0.012252542 0.053359732
000070 00 9c 9d 3c 71 82 c5 3c df aa 08 bd 25 0c 5a 3d
       0.019239426 0.02411005 -0.03336608 0.05323424
000080 40 a8 86 bb 29 10 e6 3b df cc d5 bc af bd 15 3d
       -0.0041094124 0.0070209694 -0.026098667 0.03655785
000090 60 4a 51 3d 2a 3b e1 bb ff 1e 9b bd 52 c1 34 bd
       0.05109632 -0.006873508 -0.075742714 -0.044129677
0000a0 73 ff a7 3c b3 7d 63 3d e2 2e 19 bd 31 64 02 bd
       0.02050755 0.055539798 -0.037398227 -0.03183383
0000b0 7b 1a b3 3b 3f 96 79 bd 50 c9 b0 bd 80 d7 ab bc
       0.005465803 -0.0609343 -0.08632147 -0.020976782
0000c0 83 4d 90 3c 55 ec c5 3c ef c9 a7 bd ed 87 66 3c
       0.017615085 0.024160543 -0.08192813 0.014070493
0000d0 f1 be c6 bc e7 64 cd 3c 54 1d 1f bc c4 7f bd bc
       -0.02426097 0.025072528 -0.009711582 -0.023132212
0000e0 3a dd 04 3d f2 94 35 3d e5 0c 3f 3c ec 90 99 bd
       0.03243754 0.0443315 0.011660789 -0.07498345
0000f0 15 70 0e 3d d5 58 8f bd 34 23 b0 bd 39 4d 58 3d
       0.03477486 -0.06999365 -0.086004645 0.05280802
000100 16 ff 4f 3d c2 22 48 bd 9d 00 45 bd a9 42 a1 3b
       0.05078038 -0.048861273 -0.048096288 0.0049212766
000110 0c bc a9 bd 91 63 b1 3d 35 5e 38 bd e1 d3 94 3d
       -0.0828782 0.08661569 -0.045011718 0.07266975
000120 64 8f 04 bd 9d 4d 6a bc d6 44 73 bc bb 3e 88 3d
       -0.03236331 -0.014300731 -0.014847955 0.0665259
000130 12 7d 5f bd 7a d7 9d bd a8 57 d3 bb 28 06 92 bd
       -0.054562636 -0.077071145 -0.0064496584 -0.071300805
000140 37 c4 08 3b 89 77 28 3d ba 9e 54 3d 66 23 2d bc
       0.0020868906 0.041129623 0.051909186 -0.010567522
000150 3c 0d 74 bd a7 98 49 3d 29 a6 7c bd b7 9d 51 bc
       -0.059582934 0.049217846 -0.0616819 -0.01279395
000160 c5 8a 94 bd 44 3c 73 3d c7 2c 33 bb 85 90 9d bd
       -0.07253031 0.059383646 -0.0027339922 -0.076935805
000170 12 50 aa 3c a0 03 ad bd 44 88 cb 3c db 22 59 bc
       0.020790134 -0.08447957 0.02484525 -0.013252939
000180 ca 6c 1b 3d 87 ad 5d bd 79 3a 9a 3d 60 7b 86 3d
       0.037945546 -0.054120567 0.07530684 0.06566501
000190 a5 51 8c 3d 1d 57 b8 3c 60 fd c8 3c 3c 49 af bd
       0.0685151 0.022502476 0.024534881 -0.0855889
0001a0 fb af b4 3d b6 ab 9d bc af db a6 bd 7e 73 80 3d
       0.08822628 -0.019246917 -0.0814737 0.062720284
0001b0 ce 6a 85 bd b9 43 73 bd 09 29 41 3c 77 82 b1 3d
       -0.06514512 -0.059390757 0.011789569 0.08667462
0001c0 33 24 36 3d 7c 1a 02 bd 83 fa c2 bc b0 64 88 bd
       0.044468116 -0.03176354 -0.023801094 -0.066598296
0001d0 f3 c5 19 bd 16 5f 08 3d ca 4f 6e 3d e6 31 a9 3d
       -0.037542295 0.033293806 0.05818156 0.082614705
0001e0 84 e5 b3 3d 01 6f 8c bd 63 ba 09 3d e0 7d ee 3c
       0.08784011 -0.0685711 0.033625018 0.029112756
0001f0 70 4f 8e 3d f0 bd 15 3d 7f b5 02 3d 3f de 47 3d
       0.06948745 0.03655809 0.03191137 0.048795935
000200 25 36 38 3d e7 e7 21 3c 84 29 83 bd 03 0d 18 3d
       0.04497351 0.00988195 -0.06404403 0.037121784
000210 59 ca 1b bd 80 29 28 3d 03 46 ac 3d 91 cb 44 bd
       -0.03803477 0.041055202 0.08411791 -0.0480457
000220 fa f3 2a 3d db f3 88 bb 2a cf 06 bd ca ba a6 bd
       0.04173658 -0.0041794605 -0.03291241 -0.08141096
000230 1c c6 33 bd 6a cf 89 3c f0 a2 49 bd 31 a2 22 3d
       -0.043890104 0.016822536 -0.049227655 0.03970546
000240 cd 7c 42 3c 95 c0 5a 3d 05 18 13 bd 3b 6a 76 3d
       0.011870575 0.053406317 -0.03591158 0.060159903
000250 5b 94 a1 3d fd 02 1b bd fd c6 56 3d 1b 14 af bd
       0.07889625 -0.037844647 0.052435864 -0.08548757
000260 4b cc 8a 3b ff 71 84 bd 81 ac c3 bb 5e d9 e8 3b
       0.0042357794 -0.064670555 -0.005971492 0.0071059903
000270 7b d2 73 3d 32 2e 8d 3d 55 43 a6 3d 54 a5 99 bd
       0.0595269 0.06893577 0.08118311 -0.07502237
000280 09 05 9e bd ec 96 f0 bc 58 49 b3 3d 36 03 36 3d
       -0.07715804 -0.02936884 0.087542236 0.044436656
000290 e3 b5 c9 3c 02 c7 7c bc be 91 35 bd e3 82 9f 3b
       0.024622863 -0.015428307 -0.044328444 0.004867898
0002a0 eb 91 93 bd 83 4b 90 bd 46 10 cc 3c c6 2f a6 bd
       -0.07205566 -0.07045653 0.024910104 -0.08114581
0002b0 e1 18 53 3d 9e d6 57 bd 5c ce 0a bd 37 45 4f 3d
       0.0515374 -0.05269491 -0.033888206 0.050603118
0002c0 06 49 56 bd d5 72 9c bd ea 37 07 bd 94 88 1a bd
       -0.052315734 -0.0763909 -0.03301231 -0.037727907
0002d0 6a f2 d9 bc a4 74 a7 bd 70 04 51 3d df 51 02 3c
       -0.02660485 -0.08176544 0.051029623 0.00795409
0002e0 7f 8f 9b 3d 07 9f c7 3c 8f 5f 9b 3d ee 3d 9e bd
       0.07595729 0.024367822 0.07586586 -0.07726656
0002f0 38 6d b4 bd 4f 48 92 bc f4 4d 81 3d d3 9d f7 bc
       -0.08809894 -0.017856745 0.063136965 -0.030226624
000300 a8 bf af 3d 80 80 e2 bc c9 ba 1a bd 8b 87 44 bd
       0.085814774 -0.027649164 -0.03777579 -0.047980826
000310 45 66 7e bd c1 e4 9b ba 51 41 79 b8 c6 f9 6c 3d
       -0.06210925 -0.0011893736 -5.9427057e-05 0.05785539
000320 d6 dd 56 bc e9 4b 38 bd 28 63 16 3d f7 82 fd bc
       -0.013114413 -0.04499427 0.036715657 -0.030946238
000330 6b 66 9a 3d 66 89 90 3d d0 34 a1 3d 75 05 99 bd
       0.07539066 0.07057457 0.07871401 -0.07471744
000340 db 81 98 3d da e6 9f 3b eb 68 7c bc 0b c9 8d bd
       0.07446643 0.0048798146 -0.015405874 -0.069231115
000350 20 e6 5a 3d dd 6f 81 bc 99 1d 22 bc e6 cf a2 3d
       0.05344212 -0.01580041 -0.009894752 0.0794981
000360 18 68 36 3c 7b a7 82 3d c0 59 7e 3d b4 f8 37 bd
       0.011133216 0.063796006 0.06209731 -0.044914916
000370 b9 0f a6 bc 66 18 41 3d cf fb 4e bd b7 8f a0 bd
       -0.020271169 0.04714241 -0.050533112 -0.078399114
000380 fa c9 53 3d b6 fc 20 3d 98 46 71 bd b2 e7 75 3d
       0.05170629 0.039303504 -0.058905214 0.060035415
000390 f7 f7 54 bc b0 a4 07 3d a3 3e d0 bc 4a 8f 67 3d
       -0.012998573 0.033116043 -0.025420493 0.056533135
0003a0 f6 6f 7d 3c 26 65 26 3d 56 15 a4 3d 0b cc ca bb
       0.015468588 0.040623806 0.08011882 -0.0061888746
0003b0 35 80 df 3c e8 86 3f 3d 69 91 95 bd 27 34 6d bd
       0.027282814 0.046759516 -0.073031254 -0.057911064
0003c0 d2 1b 4c 3d 95 00 1c bd b5 62 a2 3d 86 c8 95 bc
       0.04983122 -0.038086493 0.07928983 -0.018284094
0003d0 04 59 b3 3d 3a 42 a3 bd 9b aa 21 3c 7e 3a 61 3d
       0.08757213 -0.07971616 0.009867336 0.054987423
0003e0 ca d9 35 bd 8b 49 a0 3d 3d 5f 0b bd f3 d4 61 bd
       -0.044397153 0.07826527 -0.034026373 -0.055134725
0003f0 4b 20 af 3d 98 58 83 bd 40 f6 24 3d 02 24 a4 3d
       0.08551081 -0.06413382 0.040273905 0.080146804

decoder.weight f4 [128, 256]
000000 16 2c 54 bd f4 30 42 3d 6e a7 23 bd b8 d8 3b bd
       -0.051799856 0.047409967 -0.039954595 -0.045860976
000010 68 76 49 3c 70 40 cd 3b 20 ce 71 3b 12 be 2c 3d
       0.012296297 0.006263785 0.0036896542 0.042173453
000020 e8 83 01 bc 9c c8 60 bd c0 f9 55 3c 2b 96 60 3d
       -0.007904984 -0.054878816 0.013060033 0.05483071
000030 f4 09 00 3d 00 42 5d bb 7a a8 18 bd 88 3f ce bc
       0.031259492 -0.0033761263 -0.037270047 -0.025176778
000040 d0 b5 93 bc 04 b5 d0 bc 2a 43 39 3d 9c b7 9f bc
       -0.01803103 -0.02547694 0.04523007 -0.019496731
000050 3e 7f 40 bd c0 2c c0 3c 24 b0 e3 bc 00 51 10 bc
       -0.046996348 0.023458838 -0.027793951 -0.008808374
000060 dc 48 d8 3b 22 27 17 3d af 3c 31 3d 5e 0c 39 bd
       0.0066004824 0.036902554 0.043270763 -0.04517781
000070 f0 d2 58 3c c0 f4 eb ba 60 14 c2 3b 1e 86 6c 3d
       0.013233885 -0.0018002018 0.005922839 0.05774509
000080 48 53 65 bd e8 b2 8e bc 30 68 fa 3b c4 f9 60 3d
       -0.055987626 -0.017419294 0.0076418146 0.054925695
000090 8f 22 24 3d b2 f6 73 3d a0 4f 8e bc 58 63 17 3d
       0.04007202 0.05956144 -0.017371953 0.036959976
0000a0 60 57 22 3c de 98 05 3d 76 20 a6 bb 50 b4 1c 3c
       0.009908527 0.03261649 -0.0050697876 0.009564474
0000b0 f8 a7 41 bd 08 0c 43 bd 5e f0 13 bd 50 57 e8 bc
       -0.047279328 -0.047618896 -0.036117904 -0.028361946
0000c0 ce 50 17 bd 90 6f 6e 3d a8 c8 e7 bc e3 91 16 bd
       -0.036942296 0.058211863 -0.028293923 -0.036760222
0000d0 aa 2e 1f bd 7c 50 34 bd 64 4b 4f 3d f0 96 ed 3c
       -0.03886286 -0.04402207 0.050609007 0.029002637
0000e0 a0 b5 cb bc ae 53 4c 3d 36 d4 34 3d 84 94 2d bd
       -0.024866879 0.04988449 0.044147693 -0.042377964
0000f0 80 4b 2a bb 93 57 2d 3c 04 ce 8f bc b8 bd 60 bd
       -0.0025984943 0.010579961 -0.01755429 -0.05486843
000100 86 fe 56 bd 0b ec 31 3d ea 8b 5b bd 2a 66 28 bc
       -0.052488826 0.043438 -0.05360023 -0.010278264
000110 9a ec 4b 3d b0 ec 2e bd e8 c6 6c bd b6 b7 71 bd
       0.049786188 -0.04270619 -0.05780688 -0.05901309
000120 10 b7 0e bc f8 b2 32 bc 4a bb 60 3d 1e 91 3b bd
       -0.008710638 -0.010906927 0.054866113 -0.04579269
000130 13 58 3e bb 42 db 46 3d c8 27 8b 3c 62 cb 1e 3d
       -0.0029044196 0.048548944 0.016986743 0.03876818
000140 6c 1c df 3c 30 0d 24 bc 00 28 55 bc 10 f5 b9 bb
       0.027235232 -0.01001291 -0.013010025 -0.0056749657
000150 bc 02 b1 bc 1a 27 1c bd 24 8e 48 bd b0 df c0 3c
       -0.02160775 -0.038123228 -0.04896368 0.023544163
000160 ce 5b 41 3d d0 e7 19 bd 9c 97 8f 3c ac 27 55 bd
       0.047206692 -0.03757459 0.017528348 -0.052039787
000170 c4 c5 e9 bc 88 06 e3 bc 7c e9 06 bd 50 ee 20 bc
       -0.028536685 -0.027713075 -0.03293751 -0.009822443
000180 10 a9 87 bc ac 93 04 3d fe bf 1a bd 48 3a 32 3d
       -0.016560107 0.032367393 -0.037780754 0.043512613
000190 fc 60 72 3d 94 51 23 bd 20 87 19 3c 80 3d 44 3c
       0.059174523 -0.03987272 0.009370595 0.011977553
0001a0 00 66 07 3d 36 0e 49 bd 60 70 cd bc be 8a 2a 3d
       0.03305626 -0.04908582 -0.025077999 0.04163622
0001b0 68 b0 0b 3d ee 58 f5 bc 90 35 82 bc 3c 2e 1f bd
       0.03410378 -0.029949632 -0.015894681 -0.038862452
0001c0 40 30 87 3c c0 b3 48 3d c8 ce df 3c 0e 11 47 3d
       0.0165025 0.048999548 0.02732028 0.04860025
0001d0 b8 a6 40 3d ea 4b 69 3d 7c d2 fd 3c c4 b6 ff bc
       0.047033995 0.056957163 0.030984156 -0.03121508
0001e0 db b2 b5 3b 08 4a 57 bc d2 e4 c6 bc 88 e3 15 bc
       0.005545003 -0.013140209 -0.024279032 -0.009148486
0001f0 20 db db 3b d6 e0 27 bd e0 0f 60 3d 98 a9 c1 3c
       0.0067094713 -0.040985905 0.05470264 0.023640439
000200 d4 44 fa bc a4 0c 45 bd b0 e3 21 3d 0c 80 64 bc
       -0.030550398 -0.04810776 0.03952378 -0.013946544
000210 d6 52 3e 3d 6a 1e fd bc 59 af 40 3d 00 45 3e bd
       0.046465717 -0.030898292 0.047042225 -0.046452522
000220 a0 04 e5 3b a4 19 0a bd 65 4a 73 bd 08 03 00 3d
       0.0069890767 -0.03371586 -0.05939712 0.03125289
000230 c0 87 35 3d dc 5f 9d 3c ee 97 70 bd 44 6f 94 3c
       0.044318914 0.019210748 -0.05873864 0.018119462
000240 c8 76 d9 bc 20 a8 0f 3d e1 a4 1a 3d a0 19 bb 3b
       -0.026545897 0.035072446 0.037754897 0.005709842
000250 72 26 40 bd ec c7 d0 bc 04 ed 39 bd eb 4b 42 3d
       -0.046911664 -0.025485955 -0.04539205 0.047435682
000260 4f c9 0f 3d 9c 2e 38 3d b4 67 ef 3c 8e 82 1b bd
       0.035104092 0.044966325 0.029224254 -0.037966304
000270 be f9 67 bd a8 27 4c 3c d4 16 1b bd bf 16 e3 3c
       -0.056634657 0.012460627 -0.037863567 0.027720807
000280 18 54 cc 3c 92 71 12 bd ec 0e 0e bd a4 5a 7b 3d
       0.024942443 -0.03575284 -0.0346822 0.06136574
000290 94 79 b8 bc 80 ed 3c bc 98 51 13 3c 01 79 5a 3d
       -0.02251891 -0.011531234 0.008991621 0.053338055
0002a0 82 29 05 3d 48 18 1f 3c 8c c7 e1 bc 70 9d fc bc
       0.032510288 0.009710379 -0.027560972 -0.03083679
0002b0 bf 9c 42 bd c0 81 d6 3b 6a a7 56 bd 3c b2 24 bd
       -0.047512766 0.006546229 -0.052405752 -0.04020904
0002c0 ac dd fe 3c 50 1e 86 bc 80 15 ae 3a 34 18 d4 bc
       0.03111156 -0.016371876 0.0013281554 -0.025890447
0002d0 24 37 ac 3c ac 92 b5 bc 55 c6 34 bd 64 b3 57 bd
       0.021022387 -0.022164665 -0.044134457 -0.052661315
0002e0 d2 f0 3a bd 22 ca 2f 3d e0 8c 53 3c e8 de 12 bd
       -0.04563982 0.04291738 0.012912005 -0.03585711
0002f0 ce af 24 3d b8 bf 10 bd 90 f0 9f bb fc b9 0a 3d
       0.040206723 -0.035339087 -0.004880972 0.033868775
000300 14 14 38 3d a0 d9 35 3c 60 59 f1 3b 20 71 3f bb
       0.044941023 0.011099249 0.0073653907 -0.0029211715
000310 00 c8 7f bc ee 4a 7c 3d 6b 1e 4b bb 48 b1 7f 3d
       -0.015611649 0.061594896 -0.0030993472 0.062424928
000320 20 b4 4c 3c c0 34 79 3c 19 f1 df bc 06 b1 09 3d
       0.012494117 0.0152103305 -0.027336644 0.03361609
000330 ea f2 c1 3c 4e 3c 33 3d 17 b2 d1 3c 96 4b 8b bb
       0.0236754 0.043758683 0.025597615 -0.004250954
000340 e5 4c d7 bc 14 1c 1d bd e0 c0 a0 bc 8e c0 36 3d
       -0.026281783 -0.038356856 -0.01962322 0.04461723
000350 b2 15 3d 3d fc ed 66 3d 97 0b da 3c 9f ec 31 bd
       0.04616327 0.056379303 0.026616855 -0.04343855
000360 70 de 71 3c 23 46 f0 bc b8 f7 4c bd 09 9b 7d bd
       0.014762506 -0.029330319 -0.05004093 -0.06191543
000370 30 0e 37 bc 64 93 4a bd ba 1b 10 bd c3 13 5c bd
       -0.011172816 -0.04945697 -0.035182692 -0.053729784
000380 00 e5 e3 bc e6 9e 6d bd c0 58 67 bc 1d 35 45 bd
       -0.027819157 -0.058012865 -0.014120281 -0.048146356
000390 38 25 0b 3c cf 0f 12 bd 32 1b 0b 3d c0 54 0e bc
       0.00849276 -0.035659607 0.033961482 -0.008687198
0003a0 10 ae 3d 3c 72 47 c6 bc 70 22 1f bc d2 f3 08 bd
       0.011577144 -0.02420399 -0.0097128 -0.03343565
0003b0 48 44 df 3c 9c d6 83 bc e0 94 39 3d 90 6e 75 3c
       0.027254239 -0.016093545 0.045307994 0.014979973
0003c0 10 16 f6 3c 88 21 69 3d c0 13 3e bb 78 bc 0f 3d
       0.030039817 0.056916744 -0.002900347 0.035091847
0003d0 85 d1 6e 3d 28 bc 22 3c 38 8b ca 3c 62 d9 69 3d
       0.058305282 0.009932555 0.024724588 0.057092078
0003e0 41 b1 cd 3c 58 61 cc bc 00 3c 67 b9 b8 7a 1d bd
       0.025108935 -0.02494876 -0.00022052228 -0.03844711
0003f0 d0 08 cb 3c 00 b3 71 ba ba 9f 47 3d 60 c5 8a bc
       0.024784476 -0.00092200935 0.04873631 -0.016939819
